state_dict.pth (torch_old, 118587 bytes, 16 tensors)

encoder.conv_1.weight f4 [16, 1, 4, 4]
0	0x3e8384bc	0.25687206
1	0xbdb59802	-0.08866884
2	0x3e7b457d	0.24538226
3	0x3e202b81	0.15641595
4	0xbe25fdf8	-0.16210163
5	0x3d94995c	0.072558135
6	0x3e39905e	0.18121478
7	0x3e3e7a07	0.18601237
8	0x3e3a9b4f	0.18223308
9	0x3e62f36f	0.22163175
10	0x3e80dd7f	0.25168988
11	0x3dbb8d62	0.09157826
12	0xbe4e85db	-0.2016825
13	0xbd43c3a9	-0.047794018
14	0x3e5380d6	0.20654616
15	0x3d37526e	0.044756345
16	0x3d98fb9d	0.074698664
17	0xbde5dee4	-0.11224154
18	0x3e2a6264	0.16639096
19	0x3e30bc00	0.17259216
20	0xbe37c987	-0.1794797
21	0xbe9427d0	-0.28936625
22	0xbe11e5a5	-0.14247759
23	0x3e872987	0.2639887
24	0xbe883db7	-0.26609585
25	0xbc361958	-0.011114441
26	0xbe448def	-0.19194768
27	0x3e6027dd	0.21890207
28	0x3e53b776	0.20675454
29	0x3e2ce684	0.1688481
30	0xbe1271a8	-0.14301169
31	0x3d4ed587	0.050496604
32	0x3d8ab143	0.06772091
33	0x3d040996	0.032235704
34	0x3def922e	0.116978034
35	0xbe1bae26	-0.15203151
36	0xbe1c342c	-0.15254277
37	0x3e3d2474	0.18470937
38	0x3e12232f	0.14271234
39	0xbcd1ecfe	-0.025625702
40	0xbe230499	-0.15919723
41	0xbdeed614	-0.11661926
42	0x3d662b38	0.05619356
43	0x3bf56987	0.0074893865
44	0x3e1a6c5e	0.15080401
45	0xbda7e719	-0.08198375
46	0x3e87012a	0.26368076
47	0x3ea7f86f	0.32806727
48	0xbda4550a	-0.080240324
49	0x3e023ea7	0.12719212
50	0xbcb47738	-0.022029504
51	0xbd93a0b3	-0.07208385
52	0xbe3895bb	-0.18025868
53	0xbd8004c0	-0.06250906
54	0x3df5da2b	0.12004503
55	0xbd41848b	-0.047245543
56	0x3e22f7be	0.15914819
57	0x3e8b2a6d	0.27180806
58	0xbd4db960	-0.050225616
59	0x3e1ce769	0.15322651
60	0x3da7a280	0.08185291
61	0xbdc3526f	-0.09537207
62	0x3ea49b05	0.3214952
63	0x3e2e619b	0.17029421
64	0x3e045bcb	0.12925641
65	0x3e6fb0c1	0.2340727
66	0x3db9880a	0.090591505
67	0x3b8e08ed	0.00433456
68	0x3e686d9c	0.22698063
69	0xbd3ed300	-0.046587944
70	0x3e317014	0.1732791
71	0xbdaef8f0	-0.08543575
72	0xbe63be79	-0.22240628
73	0xbd8e5808	-0.069503844
74	0x3e0e706a	0.1391007
75	0xbc756100	-0.01497674
76	0x3d112987	0.035439994
77	0xbc3e04d6	-0.011597833
78	0x3e358e80	0.1773014
79	0x3e173a35	0.14768298
80	0x3d2662eb	0.04062168
81	0xbe04daca	-0.12974086
82	0x3d1c633e	0.038180582
83	0xbe07d1ed	-0.13263674
84	0xbe50bfd6	-0.2038568
85	0x3dbf9b1e	0.09355758
86	0x3df7b122	0.12094332
87	0x3e540fd6	0.20709166
88	0x3cb9eeac	0.022696815
89	0x3e848490	0.25882387
90	0x3e7753e2	0.24153093
91	0x3df36b08	0.11885649
92	0xbda36507	-0.07978254
93	0x3e81f616	0.2538306
94	0x3db7b9c0	0.08970976
95	0x3e7b101a	0.24517861
96	0xbe2ac840	-0.16677952
97	0xbe0cf4ef	-0.1376531
98	0x3c34fe32	0.011046933
99	0xbe52c818	-0.20584142
100	0x3d1ed78c	0.03877978
101	0xbe50bba8	-0.20384085
102	0xbe925227	-0.28578302
103	0x3c058082	0.008148314
104	0x3dedfff0	0.11621082
105	0xbe8d9f44	-0.27660573
106	0xbd4c2929	-0.04984394
107	0xbe99f6cc	-0.30071104
108	0xbe829516	-0.2550437
109	0xbd4ab3ae	-0.049487762
110	0xbeab1aff	-0.33419034
111	0xbe7e8564	-0.24855572
112	0xbcb37347	-0.021905554
113	0xbd33a80f	-0.043861445
114	0x3e09046f	0.13380598
115	0x3df295ea	0.11845
116	0x3ddd9f39	0.10821385
117	0x3e1e4667	0.15456544
118	0x3e7bfb65	0.24607618
119	0x3e3a77ff	0.18209837
120	0x3e8f1d80	0.27952194
121	0xbe49f8bb	-0.1972379
122	0xbe70597c	-0.23471636
123	0xbd5b953c	-0.053609118
124	0x3e6be0c4	0.2303496
125	0x3e18deac	0.14928693
126	0xbe1a7616	-0.15084109
127	0xbbbe6fa6	-0.0058116494
128	0x3bd537c0	0.00650689
129	0xbddf5baa	-0.109061554
130	0xbe41cb4f	-0.18925212
131	0xbd3e6c67	-0.0464901
132	0xbe2795b2	-0.16365698
133	0x3d5b41dd	0.05352961
134	0xbe117692	-0.14205387
135	0x3d3be5dd	0.04587351
136	0xbc2f3c67	-0.010695553
137	0x3e8ba2b2	0.27272564
138	0x3e6ed697	0.23324047
139	0x3eb0bdab	0.34519705
140	0x3e59139f	0.21198891
141	0x3d6b411e	0.057435147
142	0x3e18b17a	0.14911452
143	0x3e292708	0.16518795
144	0x3e71d91a	0.23617974
145	0x3e0289b2	0.12747839
146	0xbd29cd8a	-0.041455783
147	0x3e94869b	0.29008946
148	0x3e86dacb	0.263388
149	0x3e084a02	0.13309482
150	0x3dc6794e	0.09691106
151	0x3c789728	0.015172757
152	0xbe0238d6	-0.12716994
153	0x3dde5e55	0.10857836
154	0x3ea61ada	0.3244236
155	0xbc035734	-0.008016396
156	0xbe344e9f	-0.17608117
157	0x3e3db02b	0.18524234
158	0xbda0fba9	-0.078605
159	0xbde84b9f	-0.113425486
160	0xbe78c9b5	-0.24295695
161	0xbe9afeb6	-0.30272454
162	0xbdcc89ee	-0.099872455
163	0xbe542800	-0.20718384
164	0xbe8bf279	-0.2733343
165	0xbe19232f	-0.14954828
166	0x3be9370b	0.0071171573
167	0xbe9049a4	-0.28181183
168	0xbe715d9a	-0.23570862
169	0x3d5961e4	0.05307187
170	0xbe90f057	-0.28308365
171	0xbe8196e1	-0.25310424
172	0xbe97b53c	-0.29630458
173	0xbe46677d	-0.19375415
174	0xbd4b5661	-0.049642924
175	0x3ce345ee	0.027743306
176	0xbc858c6c	-0.01630231
177	0xbeab151a	-0.33414537
178	0xbe9c0592	-0.30473
179	0xbed34ba3	-0.41268644
180	0x3e4c826a	0.19971624
181	0xbd33fe89	-0.043943916
182	0xbe49de63	-0.1971374
183	0xbe0d7b97	-0.13816677
184	0x3d3b59cc	0.045739934
185	0x3b1d05c3	0.0023959733
186	0xbe676751	-0.22598006
187	0xbe8d195d	-0.27558413
188	0xbccd9fc2	-0.025100593
189	0x3d611fc9	0.054961953
190	0x3cd69473	0.026193833
191	0x3e6209bc	0.22074026
192	0x3e6e294f	0.23257945
193	0xbd5dd19d	-0.05415498
194	0xbe20022f	-0.15625833
195	0xbde9c5ba	-0.114146665
196	0xbc2ba065	-0.010475253
197	0xbd4ab1de	-0.049486034
198	0xbea7e4a9	-0.3279164
199	0x3d8d3fab	0.06896909
200	0xbe094aa7	-0.13407384
201	0xbe78540c	-0.24250811
202	0xbd9b870c	-0.075941175
203	0xbe1e82b1	-0.15479542
204	0xbe282969	-0.16422047
205	0xbe685a07	-0.22690593
206	0xbe5a9e9f	-0.21349572
207	0x3e65cd36	0.22441563
208	0xbdec6e40	-0.11544466
209	0x3e1f4c9a	0.15556565
210	0xbd829722	-0.063764825
211	0x3dc35f76	0.09539692
212	0x3e852ba6	0.26009864
213	0x3e1e1a67	0.15439759
214	0xbdd6a32a	-0.1048034
215	0x3d04dd0e	0.032437377
216	0x3e645ccd	0.22301026
217	0x39f08fb3	0.0004588343
218	0xbdcf96dc	-0.10136196
219	0xbe083552	-0.1330159
220	0x3e886540	0.26639748
221	0x3e5ca678	0.21547878
222	0xbd8ede3c	-0.069759816
223	0xbe8ce198	-0.27515864
224	0xbdb81028	-0.089874566
225	0xbcac2b44	-0.021016724
226	0x3d788d45	0.0606816
227	0xbe7c8e09	-0.24663557
228	0x3e9e76ee	0.3095011
229	0xbe3b1d4f	-0.18272899
230	0x3c998725	0.0187412
231	0x3d1976e2	0.03746689
232	0x3c4b8dcc	0.012423944
233	0x3e16beb6	0.14721188
234	0xbe033097	-0.12811504
235	0xbd5dbe77	-0.05413672
236	0x3e79cc2f	0.24394296
237	0x3e5dcfd1	0.21661307
238	0xbc95abff	-0.01827049
239	0x3d63ef76	0.05564829
240	0x3e1d6b3e	0.15372941
241	0x3b8a6e8f	0.0042246054
242	0x3e0a8fd9	0.13531436
243	0xbe542b35	-0.20719607
244	0x3c6c461d	0.014421013
245	0x3e73130c	0.23737735
246	0xbd995926	-0.07487707
247	0xbe2691b8	-0.16266525
248	0x3e19a754	0.15005237
249	0xbd4e095d	-0.0503019
250	0x3e80127c	0.25014102
251	0xbdac4274	-0.084111124
252	0xbd9bd460	-0.07608867
253	0xbe1c2227	-0.15247403
254	0xbdf245bb	-0.11829706
255	0x3e039007	0.12847911

encoder.conv_1.bias f4 [16]
0	0x3cc71ec0	0.024306655
1	0x3e3d83d0	0.18507314
2	0x3c773c8d	0.01509012
3	0x3d47181e	0.048606984
4	0xbde24893	-0.11048999
5	0x3e814d5a	0.25254327
6	0x3e9a883a	0.30182058
7	0xbd83aff8	-0.06430048
8	0x3deb77c6	0.11497454
9	0x3cd53677	0.026026947
10	0x3e24c2c7	0.16089927
11	0x3e49d7c7	0.19711219
12	0x3e9a15e0	0.30094814
13	0xbdcd7149	-0.10031373
14	0x3c61a95a	0.013773287
15	0x3de669f7	0.1125068

encoder.conv_2.weight f4 [32, 16, 4, 4]
0	0x3c9ec855	0.019382635
1	0x3c35281c	0.011056926
2	0x3ca69bba	0.020337928
3	0x3bfd4f44	0.0077303965
4	0x3cfae1e8	0.030625299
5	0x3ca2a156	0.019852322
6	0xbdb8e198	-0.090274036
7	0xbd70d22f	-0.058794197
8	0x3a764718	0.0009394749
9	0xbc30041b	-0.010743166
10	0x3c9b6982	0.018971208
11	0x3bc0c7b9	0.005883184
12	0xbd937ec5	-0.07201914
13	0xbdb2a097	-0.08722036
14	0xbdab7ceb	-0.083734356
15	0x3d76613b	0.06015132
16	0xbc82e2e8	-0.015977338
17	0x3ca5b316	0.020226996
18	0x3d4e9163	0.05043162
19	0x3e05f838	0.13082969
20	0x3d3e87fc	0.046516404
21	0xbc05420f	-0.008133425
22	0xbda2860f	-0.07935726
23	0x3c9fe8f3	0.019520259
24	0xbc60e86c	-0.013727289
25	0x3c6e96f0	0.0145623535
26	0x3cd4f5e4	0.025996156
27	0xbc3d5071	-0.011554823
28	0xbdc019fc	-0.09379956
29	0x3d780d0a	0.06055931
30	0x3b96b1c6	0.004598829
31	0x3da7568a	0.08170803
32	0xbce78b85	-0.02826477
33	0xbd92fc58	-0.07177037
34	0xbdb1af26	-0.08675985
35	0x3d896a5c	0.067097396
36	0x3c371655	0.011174758
37	0xbd3608d2	-0.044442005
38	0xbda0fefe	-0.07861136
39	0xbbfbb627	-0.0076816264
40	0xbcaf706f	-0.021415917
41	0xbdad0879	-0.08448882
42	0xbbdfea13	-0.0068333237
43	0xbcdf926f	-0.027291505
44	0xbca32074	-0.019912936
45	0xbb107792	-0.0022043926
46	0x3d8018af	0.06254708
47	0x3d241359	0.040057514
48	0x3d1b338b	0.037890952
49	0xbc7ce3c0	-0.015435159
50	0xbd05c018	-0.032653898
51	0xbdb46400	-0.08808136
52	0x3cc5dc79	0.024152981
53	0xbd9c0484	-0.07618049
54	0xbcab3ef9	-0.020904051
55	0xbdcb0d42	-0.09914638
56	0xbd6cbd7b	-0.05779789
57	0xbcfc8377	-0.030824406
58	0xbdb86cc3	-0.0900512
59	0xbcf709bf	-0.030156014
60	0x3c6afe91	0.01434292
61	0xbd73c368	-0.059512526
62	0xbc96af9f	-0.01839429
63	0xbc70fbd3	-0.014708477
64	0x3d03e3fe	0.032199852
65	0xbd5edde2	-0.054410823
66	0x3da250e1	0.07925583
67	0x3cd8e2c2	0.026475314
68	0x3b8620af	0.0040932517
69	0xbd35437e	-0.04425382
70	0xbcca3f96	-0.024688523
71	0xbde1c9df	-0.11024832
72	0x3d251e08	0.040311843
73	0x3cdd40d9	0.02700846
74	0xbd2d9220	-0.042375684
75	0xbc820f9f	-0.01587659
76	0x3d3ea3cc	0.046542928
77	0xbbd65a12	-0.006541499
78	0xbc8499e7	-0.016186668
79	0xbce12c66	-0.027486991
80	0x3c91520a	0.017739315
81	0xbc9dba3c	-0.019253843
82	0xbd8e80f8	-0.069581926
83	0xbd5791a2	-0.05262912
84	0xbd11185f	-0.035423633
85	0xbd78595f	-0.060632106
86	0xbd5b8368	-0.053592116
87	0xbd3a8409	-0.045536075
88	0xbd3c859f	-0.04602587
89	0xbdb01b8f	-0.085990064
90	0xbc4a095a	-0.012331331
91	0x3cf55813	0.029949224
92	0x3d3e275a	0.046424247
93	0xbd1e2a18	-0.038614362
94	0xbdcaefed	-0.099090435
95	0x3c20a580	0.009805083
96	0x3d7798d4	0.060448483
97	0x3d8185b1	0.06324328
98	0x3cc08e9d	0.023505503
99	0x3d0bd6ea	0.034140505
100	0x3d41e72f	0.047339614
101	0x3c5c8ebf	0.013461768
102	0x3de1b4ce	0.11020814
103	0x3d41d46f	0.047321733
104	0x3dafdc36	0.08586924
105	0x3d58d318	0.05293569
106	0x3df61d22	0.120172754
107	0x3de9bb26	0.11412649
108	0xbccf5964	-0.02531118
109	0x3ce69d00	0.028151035
110	0x3d125a92	0.035730906
111	0xbcb7deea	-0.02244516
112	0xbcf965a6	-0.030443978
113	0x3d8b0651	0.06788314
114	0x3d50b191	0.05095059
115	0xbd17e1cd	-0.037080575
116	0x3d0b16d1	0.033957306
117	0xbc4d1759	-0.012517774
118	0x3cfaddf7	0.03062342
119	0x3c9b10d0	0.018928915
120	0x3d1adbdf	0.03780734
121	0xbc71dfc9	-0.014762827
122	0xbdbcb21c	-0.09213659
123	0xbe08b943	-0.13351922
124	0x3ca63de7	0.02029319
125	0xbd073641	-0.033010725
126	0xbd49ec76	-0.049297772
127	0x3d106bfd	0.035259236
128	0xbcd368ac	-0.025806747
129	0x3c37b951	0.0112136165
130	0xbdf5cecc	-0.12002334
131	0xbdbbc620	-0.09168649
132	0xbd40a344	-0.047030702
133	0xbdc6dfbd	-0.097106434
134	0xbdac8d20	-0.08425355
135	0xbc9c3360	-0.019067466
136	0xbdc1ffff	-0.094726555
137	0xbdf04fbc	-0.11733958
138	0xbdcb5042	-0.09927417
139	0xbba31df7	-0.0049779373
140	0xbad83d1b	-0.0016497703
141	0xbc90191d	-0.0175901
142	0x3c668e1e	0.014071969
143	0x3dca9fbc	0.09893748
144	0x3c7ee592	0.0155576635
145	0x3d83df92	0.06439127
146	0x3e00e828	0.1258856
147	0x3d80f4c1	0.06296683
148	0xbcb1ce75	-0.021704892
149	0xbd482a36	-0.04886838
150	0xbae2e713	-0.0017311297
151	0xbcaf5fdc	-0.021408014
152	0xbb87726f	-0.0041335146
153	0x3c61322e	0.013744874
154	0xbd518243	-0.051149618
155	0xbb0967f6	-0.0020966507
156	0xbcd05fbd	-0.025436277
157	0xbe007515	-0.12544663
158	0xbc3c8413	-0.011506098
159	0xbbd08659	-0.0063636717
160	0xbd1299fc	-0.035791382
161	0x3cdeca86	0.02719618
162	0x3d29f3da	0.04149232
163	0x3d76bff0	0.06024164
164	0x3cca416c	0.024689399
165	0x3e1603a3	0.14649825
166	0x3e30bf85	0.17260559
167	0x3d958c85	0.073021926
168	0xbd598472	-0.053104825
169	0x3e1e21a5	0.15442522
170	0x3ded6ed3	0.11593404
171	0x3e097c2b	0.13426273
172	0x3ca08c75	0.019598225
173	0x3e0f38fb	0.1398658
174	0x3e248b01	0.16068651
175	0x3dca961e	0.09891914
176	0xbbdae96a	-0.006680657
177	0xbd85d031	-0.0653385
178	0xbd05c607	-0.032659557
179	0xbdb92105	-0.09039501
180	0xbbd53db5	-0.0065076
181	0x3d11d584	0.035604015
182	0x3d8b19e6	0.06792049
183	0x3d624112	0.055237837
184	0x3d3169b9	0.043313716
185	0x3db093be	0.086219296
186	0x3d86e856	0.06587283
187	0x3d0b5308	0.03401473
188	0x3d5ddf46	0.05416801
189	0x3c90ac15	0.01766018
190	0x3d0c98a9	0.034325276
191	0x3d8dc368	0.069220364
192	0x3d20f3da	0.039295055
193	0x3d1f7a63	0.038935076
194	0x3de065fa	0.109569505
195	0x3d0239f7	0.03179356
196	0xbc48199c	-0.012213137
197	0x3dd1732d	0.10227046
198	0x3dd18188	0.10229784
199	0x3d87c61b	0.066295825
200	0x3d90e223	0.07074382
201	0x3d8a1e31	0.0674404
202	0x3d606ceb	0.054791372
203	0x3e00f9c9	0.12595285
204	0xbd086f02	-0.03330899
205	0x3d511ad4	0.051050976
206	0x3b4b9333	0.003106308
207	0x3d2a09c2	0.041513212
208	0x3d8ccbcb	0.06874808
209	0x3d913ccb	0.070916735
210	0x3d6244cd	0.055241395
211	0xbccc3939	-0.02492963
212	0x3db6dd38	0.08928913
213	0x3dc418f4	0.09575072
214	0xbaeda311	-0.0018130263
215	0x3d1b0f8a	0.037856616
216	0x3e1778b9	0.14792146
217	0xbdc4663e	-0.09589814
218	0xbd27e033	-0.040985297
219	0xbdca834f	-0.098883264
220	0x3dcfefd4	0.101531655
221	0x3bb9a026	0.005664843
222	0xbe0eb921	-0.13937809
223	0x3d983e1a	0.0743372
224	0x3d95a48b	0.07306775
225	0x3d2cb6c6	0.042166494
226	0xbd86b088	-0.065766394
227	0xbdbcfcbb	-0.09227892
228	0x3bb6b59a	0.005575848
229	0x3cfa67a7	0.030567003
230	0xbd8c054f	-0.0683695
231	0xbd402a69	-0.046915445
232	0x3e00675b	0.12539427
233	0x3d0c8753	0.034308743
234	0xbca1c5b2	-0.019747589
235	0xbc68071d	-0.014161852
236	0x3e0b4a4b	0.1360256
237	0x3d257a11	0.040399615
238	0x3ced65d4	0.02897922
239	0xbc98643a	-0.01860248
240	0x3d299275	0.041399438
241	0x3cd39620	0.025828421
242	0x3d25476c	0.040351316
243	0xbc4c2b01	-0.012461425
244	0x3d8c7c9a	0.06859703
245	0x3d95397d	0.07286356
246	0xbd519309	-0.051165614
247	0xbd1148a3	-0.035469662
248	0x3d10a1e2	0.035310633
249	0xbcdd4da8	-0.027014568
250	0x3c912d60	0.017721832
251	0x3cf72add	0.030171806
252	0x3cb4c2d2	0.022065554
253	0xbda57812	-0.08079542
254	0xbdc06117	-0.093935184
255	0xbda25b06	-0.079275176

encoder.conv_2.bias f4 [32]
0	0x3ccf8ba0	0.025335133
1	0xbc52f2cb	-0.012875269
2	0x3bf3dfa7	0.007442433
3	0xbbf8597a	-0.007579026
4	0x3d16850e	0.036747985
5	0x3e194329	0.14967026
6	0x3d4e8eab	0.050429028
7	0x3d54c8e3	0.051949393
8	0xbd8250fb	-0.06363102
9	0x3d158fc5	0.036514062
10	0xbc0f8cd0	-0.0087616
11	0x3e0084e3	0.12550692
12	0x3c658036	0.014007619
13	0xba0fb22c	-0.0005481567
14	0x3ce0a415	0.02742199
15	0xbc15e5ee	-0.009149058
16	0x3d0b5fd2	0.03402693
17	0x3d63e25c	0.055635795
18	0x3dbb1803	0.09135439
19	0x3d9cc84a	0.076553896
20	0x3db9c81c	0.09071371
21	0x3cf7cd92	0.03024939
22	0x3daf74ef	0.08567225
23	0x3d36fd26	0.044675015
24	0xbd16a568	-0.036778837
25	0x3d2e903d	0.042618025
26	0x3da16ca0	0.07882047
27	0x3d16cf8f	0.036819037
28	0x3d2df685	0.042471427
29	0x3d70ac02	0.05875779
30	0x3d00c0a1	0.031433705
31	0xbd4a4dd2	-0.04939062

encoder.conv_3.weight f4 [32, 32, 3, 3]
0	0x3d459d2b	0.04824559
1	0x3d6ce58e	0.057836108
2	0xbcaac473	-0.020845627
3	0x3cff935a	0.031198192
4	0xbdb14265	-0.08655242
5	0x3d78e488	0.06076482
6	0x3decb1bd	0.115573384
7	0x3de5c563	0.11219289
8	0xbc2198be	-0.009863077
9	0xbc24e7f9	-0.010065072
10	0xbbc38dfa	-0.0059678527
11	0xbdd4d852	-0.10392822
12	0x3d9ba103	0.0759907
13	0x3d570135	0.052491385
14	0xbd2ae12b	-0.041718643
15	0x3c018307	0.0079047745
16	0xbcec1016	-0.028816264
17	0xbc830c13	-0.015996968
18	0xbd18164c	-0.03713064
19	0xbd2ed218	-0.04268083
20	0xbda837f0	-0.08213794
21	0x3d81365a	0.06309195
22	0xbd59df3e	-0.053191416
23	0xbce52507	-0.027971758
24	0x3d79323f	0.060838934
25	0x3ba95fe0	0.0051689
26	0xbd0cb4be	-0.034352057
27	0x3cfabb70	0.030606955
28	0x3d5c74a5	0.05382218
29	0xbb89e982	-0.0042087445
30	0x3d3c53b1	0.04597825
31	0xbd483111	-0.04887492
32	0x3cd54973	0.026036
33	0x3d22971b	0.039694887
34	0x3d6d00d3	0.057862114
35	0x3c2ea5aa	0.010659615
36	0x3c9a7858	0.018856212
37	0x3c89da66	0.016827773
38	0xbcf99bb8	-0.03046976
39	0x3d5209c0	0.05127883
40	0xbd3d19f7	-0.04616734
41	0xbd91f3d7	-0.07126587
42	0x3d14ed08	0.036358863
43	0x3d61ebfd	0.055156697
44	0xbd0fccdf	-0.03510749
45	0x3b9f4638	0.0048606656
46	0xbd6714f0	-0.056416452
47	0xbdf611da	-0.12015124
48	0xbd654eb2	-0.055983253
49	0x3c6b7b9a	0.014372731
50	0xbd4d89e0	-0.050180316
51	0x3d1f8593	0.038945746
52	0x3d5a8642	0.053350694
53	0x3d891bdd	0.066947676
54	0x3d2cd709	0.04219726
55	0x3d854ced	0.06508813
56	0x3cc6d5cc	0.024271868
57	0xbd9709d7	-0.07374924
58	0xbceb2e94	-0.028708734
59	0x3dd59700	0.104291916
60	0xbc535ca2	-0.012900503
61	0x3da5522f	0.08072316
62	0x3d2a4efb	0.041579228
63	0xbdc73b32	-0.097280875
64	0x3dcd72f8	0.10031694
65	0x3c2763c5	0.010216658
66	0x3dcf8eb6	0.10134642
67	0xbe12963c	-0.14315122
68	0x3d86add3	0.06576123
69	0x3b3477d3	0.002753724
70	0x3d4e82c2	0.05041767
71	0x3ddcbef7	0.10778611
72	0xbc3587a4	-0.0110797025
73	0xbc4ee7e4	-0.012628529
74	0xbd68d704	-0.05684568
75	0x3d3b860e	0.04578214
76	0xbd53aa84	-0.05167629
77	0xbc10147c	-0.008793946
78	0x3a277da3	0.0006389266
79	0x3ca2ef44	0.019889481
80	0xbd2a35c2	-0.041555174
81	0x3d47910c	0.04872231
82	0x3d051588	0.032491237
83	0x3d718463	0.058964144
84	0xbd98972d	-0.074507095
85	0xbd969742	-0.07353069
86	0x3dc17263	0.09445646
87	0x3d934dba	0.071925595
88	0x3e3f9bd2	0.18711784
89	0xbb267ef8	-0.002540527
90	0xbd01f328	-0.031726032
91	0x3d37e592	0.04489667
92	0xbb60c926	-0.0034299581
93	0x3c9294d8	0.01789324
94	0xbd82e633	-0.06391563
95	0x3dd8fc74	0.105950266
96	0x3cfcfdc3	0.030882722
97	0xbd887529	-0.066629715
98	0xbd445568	-0.047933012
99	0x3d84d242	0.06485416
100	0x3d674922	0.05646623
101	0xbe0683ff	-0.1313629
102	0xbcf5bb83	-0.02999664
103	0x3d14d603	0.03633691
104	0xbbe52f03	-0.0069941296
105	0x3d71f54c	0.059071824
106	0x3ce2199f	0.027600108
107	0x3d0090c8	0.031388074
108	0xbd17a3ed	-0.037021566
109	0xbd5c9240	-0.053850412
110	0xbd9d6548	-0.076853335
111	0x3a838f13	0.0010037146
112	0xbd420f66	-0.047377966
113	0xbd88ac4d	-0.06673489
114	0xbd2a9dab	-0.04165427
115	0xbc857970	-0.016293257
116	0xbd3df7f0	-0.04637903
117	0x3d3ca296	0.04605349
118	0x3b41c342	0.0029565846
119	0xbd65760b	-0.056020778
120	0x3b362c31	0.0027797336
121	0x3d933c7e	0.07189272
122	0xbd3094c7	-0.043110635
123	0x3dafe255	0.08588091
124	0x3c437dee	0.011931879
125	0x3d3e4b2d	0.046458412
126	0x3d8181f6	0.06323616
127	0xbd8efd9a	-0.069819644
128	0xbd2f2937	-0.042763915
129	0xbcec48d5	-0.028843323
130	0xbcabf98e	-0.02099302
131	0xbd2f4a20	-0.0427953
132	0x3cc4900d	0.02399447
133	0x3c199be8	0.00937555
134	0x3d3a4261	0.04547346
135	0xbc887586	-0.016657602
136	0xbd9108b8	-0.07081741
137	0xbdb444bd	-0.08802173
138	0x3d9aae44	0.0755277
139	0x3cebc3d8	0.028779909
140	0xbc8a723e	-0.016900178
141	0xbbec85a6	-0.0072180806
142	0x3c5f7b4d	0.013640237
143	0xbdac023c	-0.08398864
144	0xbd1a23dc	-0.037631854
145	0xbd0c669a	-0.034277536
146	0xbd84a47c	-0.064766854
147	0x3da96f90	0.08273232
148	0x3ce220d9	0.027603554
149	0x3b1118c6	0.002214001
150	0xbd0b76c6	-0.034048818
151	0xbd318c5b	-0.043346744
152	0xbd5909d3	-0.052987885
153	0xbc391234	-0.011295844
154	0x3b919c20	0.0044436604
155	0x3d07f6a1	0.033194188
156	0xbd063280	-0.032763004
157	0xbd59bae0	-0.053156734
158	0x3d6b7aef	0.057490285
159	0x3cb0701e	0.021537837
160	0x3d4d04b8	0.05005333
161	0x3cae2dce	0.021262076
162	0xbb9ce865	-0.004788446
163	0x3c656d56	0.0140031185
164	0xbd26e91f	-0.040749665
165	0x3dbc02e6	0.0918024
166	0xbe1de18d	-0.15418072
167	0x3e2b064b	0.1670162
168	0x3cb43fe9	0.022003131
169	0x3d010bbe	0.03150534
170	0x3d41436e	0.047183447
171	0x3c54e853	0.012994844
172	0xbd411412	-0.04713828
173	0xbdb2aceb	-0.08724388
174	0x3bbfc25b	0.0058520264
175	0x3d871d0f	0.06597339
176	0xbdab07a2	-0.08351065
177	0x3d0c9514	0.03432186
178	0x3c85344b	0.016260287
179	0xbd426ce6	-0.047467135
180	0xbd0bda85	-0.034143943
181	0x3d835038	0.06411785
182	0xbd2641d7	-0.040590134
183	0x3cba69a4	0.022755452
184	0x3d2d25f5	0.042272527
185	0x3de03e6a	0.109494045
186	0x3d5b5a7c	0.05355309
187	0x3e1339e9	0.1437756
188	0x3d9deabc	0.07710788
189	0x3d069f57	0.032866802
190	0xbbb65303	-0.005564095
191	0x3cba98c5	0.022777924
192	0x3c9ee215	0.019394914
193	0x3ca7de74	0.020491816
194	0x3cda3bd6	0.02663986
195	0x3d58f22f	0.05296534
196	0x3d219c7f	0.039455887
197	0x3cd9e481	0.026598217
198	0xbd53a3cd	-0.051669884
199	0xbd970223	-0.073734544
200	0xbe08ded4	-0.13366252
201	0x3c952811	0.018207582
202	0xbd0c30af	-0.034226116
203	0x3d38e9c6	0.04514482
204	0xbcfc8eb7	-0.03082977
205	0x3d835e5b	0.06414481
206	0xbcf7bc36	-0.030241113
207	0xbc06add7	-0.008220158
208	0xbcd3865f	-0.025820909
209	0xbc4187d6	-0.011812171
210	0x3c4923cf	0.012276604
211	0xbd4673a5	-0.04845013
212	0xbce81e6c	-0.028334819
213	0xbcca6acd	-0.02470913
214	0xbd15a395	-0.036532957
215	0x3c5e5604	0.013570312
216	0xbcdb9312	-0.026803527
217	0x3d5e9469	0.054340754
218	0xbba13e88	-0.0049207844
219	0x3d5ab4ae	0.053394966
220	0x3d3f0194	0.046632364
221	0x3d4953dd	0.049152244
222	0x3db46977	0.08809178
223	0x3d866d33	0.06563797
224	0xbd4d9f0b	-0.050200503
225	0x3c84211a	0.016129065
226	0xbd0e2387	-0.03470185
227	0x3cb2dde6	0.021834325
228	0x3c4be780	0.012445331
229	0xbe4fec5f	-0.20305012
230	0x3d143924	0.036187306
231	0x3cde28a3	0.027118986
232	0x3d5fbe3b	0.054624777
233	0x3cddd6b9	0.027079927
234	0xbd87c1bb	-0.06628748
235	0xbdc6c99c	-0.09706423
236	0x3d0b778b	0.034049552
237	0x3d85fd5f	0.06542467
238	0xbd2c7a75	-0.04210897
239	0x3d795daf	0.06088036
240	0xbce74dce	-0.028235342
241	0x3d4b3e5f	0.04962003
242	0x3d860545	0.06543974
243	0x3cfa4770	0.030551642
244	0x3e28f70c	0.16500491
245	0xbcaa3ece	-0.0207819
246	0x3dda862f	0.10670125
247	0xbc4d2515	-0.012521048
248	0x3d9c80fc	0.07641789
249	0x3e1fd4bd	0.15608497
250	0x3dc2de19	0.09515018
251	0x3db21f4f	0.08697378
252	0x3d2ae1e6	0.04171934
253	0xbc7d375f	-0.015455096
254	0x3c84e4d9	0.016222404
255	0xbd1e6e7a	-0.038679577

encoder.conv_3.bias f4 [32]
0	0x3c8de104	0.01731921
1	0xbd10420d	-0.03521924
2	0x3dbe75a7	0.09299784
3	0xbcc546b1	-0.02408156
4	0x3dea9b9c	0.114554614
5	0x3d3f521e	0.046709172
6	0x3dba80d6	0.09106605
7	0xbdda445a	-0.10657568
8	0x3c052b39	0.008127981
9	0x3c6c441d	0.014420536
10	0x3df80492	0.12110247
11	0x3b9ad20c	0.0047247466
12	0x3d9b1d3b	0.07573935
13	0x3c80d7e6	0.015727948
14	0x3c943870	0.018093318
15	0x3dc81776	0.097701
16	0xbdd89d22	-0.10576846
17	0x3c65d42e	0.014027638
18	0xbd133e5a	-0.035948135
19	0x3cf5f1f5	0.0300226
20	0x3de9bae9	0.114126034
21	0x3d6b83ce	0.057498746
22	0x3d7b1cb5	0.061306674
23	0x3c9efac2	0.01940668
24	0xb8eb3a31	-0.00011216512
25	0x3d45e236	0.048311435
26	0xbd0f287d	-0.034950722
27	0x3cbee77d	0.023303742
28	0x3e1e3c98	0.15452802
29	0x3d31d71e	0.043418042
30	0x3c65d08b	0.014026771
31	0xbc159850	-0.009130552

pre_qunatization_conv.weight f4 [8, 32, 1, 1]
0	0xbd064ab1	-0.032786075
1	0xbe6cbfa7	-0.23119985
2	0x3e0f10d7	0.13971268
3	0x3c83a14e	0.016068127
4	0x3cfdbd1c	0.030973963
5	0x3daea929	0.085283585
6	0x3da93f08	0.082639754
7	0xbe3e3422	-0.18574575
8	0xbd0d1815	-0.034446795
9	0xbd524e32	-0.051344104
10	0x3e09b8b5	0.13449366
11	0xbc79528d	-0.015217436
12	0x3e6488a4	0.2231775
13	0x3e280d19	0.16411246
14	0x3e2df288	0.1698705
15	0x3e3483f3	0.1762846
16	0x3ca8b08f	0.020592002
17	0xbe13e75a	-0.14443722
18	0xbd890d7f	-0.06692027
19	0x3d8ffb9e	0.07030414
20	0xbe006cf0	-0.12541556
21	0xbe59d5d3	-0.21272974
22	0x3e20aa12	0.15689877
23	0xbdcc9fb3	-0.09991398
24	0x3e240ef1	0.16021325
25	0x3df6a87c	0.120438546
26	0xbe2f1d0c	-0.17100924
27	0xbd502fdd	-0.050826896
28	0xbdb32a1a	-0.087482646
29	0x3e41f0f4	0.18939573
30	0x3e2fe149	0.17175783
31	0xbe0f2020	-0.13977098
32	0xbe960564	-0.29300988
33	0xbce1830a	-0.027528305
34	0xbe54c011	-0.20776393
35	0x3e7618a5	0.24032839
36	0x3d05327d	0.032518853
37	0xbe79b986	-0.24387178
38	0xbcf891c8	-0.030342951
39	0x3e12a6c1	0.14321424
40	0xbe38a62e	-0.18032143
41	0xbd1a7aa7	-0.037714627
42	0xbda7db04	-0.08196071
43	0x3e3c7aaa	0.18406168
44	0x3b07aa47	0.0020700858
45	0x3e6df53b	0.23238079
46	0x3e1ad757	0.15121208
47	0xbd6391dc	-0.055559024
48	0x3e6f7cc2	0.23387435
49	0x3e6a2e6a	0.22869268
50	0x3d0142a0	0.03155768
51	0x3e142fb8	0.14471328
52	0xbdc12841	-0.09431506
53	0xbe68995e	-0.22714755
54	0x3e15c001	0.14624025
55	0xbcf68400	-0.03009224
56	0x3d9ac6e6	0.07557468
57	0x3d22093d	0.03955959
58	0xbdb5b0be	-0.088716015
59	0x3de325a1	0.110911615
60	0xbe45204e	-0.19250605
61	0x3c81be5f	0.015837846
62	0x3e0d2dc1	0.13786985
63	0xbd04a85f	-0.032387134
64	0x3e984e06	0.29747027
65	0x3e583408	0.21113598
66	0xbc44c62f	-0.012010141
67	0xbdd8426a	-0.105595425
68	0x3e57ecb7	0.21086393
69	0xbcf31f13	-0.029677903
70	0x3ea39d78	0.31956077
71	0xbe1c0141	-0.15234853
72	0x3d2ae7ff	0.041725155
73	0x3e52eaf9	0.20597447
74	0x3e10fb05	0.14158256
75	0xbdeea1dd	-0.11651967
76	0xbe42c5eb	-0.19020812
77	0xbd6395c6	-0.055562757
78	0xbdb526e7	-0.08845311
79	0x3e110a47	0.14164077
80	0xbe52da53	-0.20591097
81	0x3c466e80	0.012111306
82	0x3e3eea40	0.18644047
83	0xbdf3739c	-0.11887285
84	0x3e915a8d	0.28389397
85	0x3e848c55	0.25888315
86	0x3d85c5a5	0.06531838
87	0xbde33971	-0.110949405
88	0xbd8d1180	-0.068881035
89	0xbe3d52dd	-0.18488641
90	0x3d218131	0.039429847
91	0xbdc8db5b	-0.09807464
92	0x3e1b989d	0.15194936
93	0xbd7e6316	-0.062106214
94	0x3dfa6fa7	0.12228327
95	0xbe263e84	-0.16234785
96	0xbe266fc7	-0.16253577
97	0xbe555aad	-0.20835371
98	0x3da4933f	0.080358975
99	0xbd8bfe6e	-0.06835638
100	0xbe4868d6	-0.19571242
101	0xbdb3d10e	-0.087801084
102	0xbe470f47	-0.19439422
103	0xbd9e1c4d	-0.07720242
104	0xbe4cc99b	-0.19998781
105	0x3e01848a	0.12648216
106	0xbcec8cce	-0.028875735
107	0xbd563338	-0.05229494
108	0x3e5f3968	0.21799242
109	0x3da0b5a6	0.07847147
110	0x3e7453e7	0.23860131
111	0x3e44e493	0.19227819
112	0xbda88d05	-0.08230022
113	0x3d95f601	0.07322312
114	0xbd481413	-0.04884727
115	0xbd9d1ef8	-0.076719224
116	0xbd930b2a	-0.07179864
117	0xbe29714b	-0.16547124
118	0x3e1c5378	0.15266216
119	0x3b114ee7	0.0022172274
120	0xbd9ffdf9	-0.07812113
121	0x3e424b20	0.1897397
122	0xbc2c9edc	-0.010535922
123	0x3e525b10	0.2054255
124	0x3d115a48	0.03548649
125	0x3e340160	0.1757865
126	0x3e1e3e0f	0.15453361
127	0x3da0e2f8	0.07855791
128	0xbe18e338	-0.14930427
129	0xbe565e9f	-0.20934533
130	0x3abb3125	0.0014281614
131	0x3e0a6597	0.13515316
132	0xbdb2e7cf	-0.0873562
133	0xbe381c52	-0.17979553
134	0xbda0d58c	-0.07853231
135	0x3db5f240	0.08884096
136	0xbd18bfeb	-0.037292402
137	0xbe15c5b5	-0.146262
138	0x3db25e95	0.08709446
139	0x3e79bb1b	0.24387781
140	0x3e304c09	0.17216505
141	0x3d1ffb7c	0.039058194
142	0x3e28e95e	0.16495273
143	0x3e3b4b74	0.18290502
144	0x3dc8b45f	0.09800028
145	0x3e0fd224	0.14045006
146	0xbdd5f6b9	-0.10447449
147	0x3e319bda	0.17344609
148	0x3d27c3ba	0.040958144
149	0xbe379b47	-0.17930327
150	0x3e81cd57	0.25351974
151	0xbcd29e61	-0.025710287
152	0xbda8c752	-0.08241142
153	0xbcfd18dd	-0.030895645
154	0xbdac3d86	-0.08410172
155	0x3e02a457	0.12758003
156	0x3d3afbd2	0.04565031
157	0x3b6dd66e	0.003629114
158	0xbdb9d83f	-0.09074449
159	0x3d1b9bb3	0.037990283
160	0x3df15b10	0.11784947
161	0x3decc09b	0.11560174
162	0x3e2d68b3	0.16934471
163	0xbe29dac3	-0.16587357
164	0x3d1b74fe	0.03795337
165	0xbe0891d3	-0.13336878
166	0x3dcbae21	0.09945322
167	0x3dea55e8	0.114421666
168	0xbd238a88	-0.039927036
169	0x3e20da69	0.15708317
170	0xbe399056	-0.18121466
171	0xbded27a2	-0.11579825
172	0x3dd80631	0.10548056
173	0x3dcccb9f	0.09999775
174	0xbcb79b56	-0.022412937
175	0xbc3568bf	-0.011072337
176	0xbc936391	-0.017991813
177	0xbd4cec44	-0.050030008
178	0xbe04b9ae	-0.12961456
179	0xbdda91be	-0.10672329
180	0x3e650517	0.22365223
181	0x3e4ffd3f	0.2031145
182	0x3b3bb8e2	0.0028644134
183	0x3e2af34d	0.16694374
184	0xbe0de7ac	-0.13857907
185	0xbc0d7887	-0.008634693
186	0x3d070af7	0.03296944
187	0xbdb2de43	-0.08733799
188	0xbe2292e2	-0.15876344
189	0xbd165cf9	-0.03670976
190	0xbda1e107	-0.07904249
191	0x3cff9539	0.031199085
192	0x3de99ab2	0.11406459
193	0x3dfe6e82	0.124234214
194	0xbe166bbc	-0.14689535
195	0xbd956568	-0.07294732
196	0x3e4e18a2	0.20126584
197	0x3e477c52	0.19481018
198	0x3e4eb940	0.20187855
199	0xbdfcbdc0	-0.123408794
200	0x3dd73773	0.10508623
201	0x3d64f33b	0.055896025
202	0xbd966a87	-0.07344537
203	0xbe8e1998	-0.277539
204	0xbe364390	-0.1779921
205	0xbe5e0c32	-0.2168434
206	0xbd987cc9	-0.07445676
207	0x3ca0f4d7	0.019647999
208	0xbe4c2ef1	-0.19939782
209	0x3d0d99a8	0.034570366
210	0x3c803a02	0.01565266
211	0x3d3971a6	0.0452744
212	0x3dd7d689	0.10538966
213	0x3eb01368	0.34389806
214	0xbe67cb52	-0.22636154
215	0x3d75f51b	0.060048204
216	0xbe2a7aee	-0.16648456
217	0xbc12dcbd	-0.008963761
218	0xbd80acb2	-0.06282939
219	0xbe48965a	-0.19588605
220	0x3e3a70d3	0.18207102
221	0x3cc771d8	0.024346277
222	0xbd7a977d	-0.061179627
223	0xbe035583	-0.12825589
224	0xbe277569	-0.16353382
225	0xbd8a365d	-0.0674865
226	0xbd1285ad	-0.035772014
227	0x3d6c8a28	0.057748944
228	0x3d6e2ba0	0.058147073
229	0xbd821f42	-0.06353618
230	0xbe162961	-0.14664222
231	0xbd873f2d	-0.06603847
232	0xbe1d06b2	-0.15334585
233	0xbe13eefd	-0.14446636
234	0x3e0a5951	0.13510634
235	0x3d54569a	0.051840402
236	0xbdf3a518	-0.118967235
237	0x3d80184e	0.06254636
238	0xbcabbe22	-0.020964686
239	0x3e40737e	0.18794057
240	0xbde78c34	-0.113060385
241	0x3ddb789f	0.10716366
242	0xbda03f52	-0.078245774
243	0x3ddc7d4c	0.10766086
244	0xbe5768dd	-0.21036096
245	0xbe117f0b	-0.1420862
246	0x3c39b08c	0.011333596
247	0xbe064be0	-0.13114882
248	0x3e0e08ea	0.13870588
249	0x3e3ac8cd	0.18240662
250	0xbe16a36f	-0.14710782
251	0xbd95d8d4	-0.07316747
252	0x3de7fc95	0.11327473
253	0x3cd46d76	0.025931101
254	0x3d2c2cc4	0.04203488
255	0x3dd75dc8	0.10515934

pre_qunatization_conv.bias f4 [8]
0	0x3dcdde04	0.10052112
1	0xbce056e8	-0.02738519
2	0xbdf99bdb	-0.1218793
3	0x3dbb85bf	0.091563694
4	0x3e5b9b8e	0.21446058
5	0xbdf84a32	-0.12123527
6	0x3d717009	0.058944736
7	0x3e1f5a24	0.1556173

quantizer.ema_normalizer f4 [5, 1]
0	0x40a2de47	5.0896335
1	0x42359338	45.39377
2	0x41db2a6f	27.39572
3	0x3ff5ddc3	1.9208301
4	0x3d238303	0.039919864

quantizer.ema_weight f4 [5, 8]
0	0x4091dda3	4.5583053
1	0x410ddebc	8.8668785
2	0xbfc75df4	-1.5575547
3	0x3fdaf8d3	1.7107185
4	0x4114aaaa	9.291666
5	0xbe050f17	-0.12994038
6	0xc15897d4	-13.537067
7	0x3ff06677	1.878127
8	0x415ba1cc	13.727001
9	0xc0cfd3ba	-6.4945955
10	0x424f01f7	51.75192
11	0xc1aaa95c	-21.332695
12	0x41c2fd1e	24.373592
13	0x41845f1a	16.546436
14	0xc1efada1	-29.95978
15	0xc17678a9	-15.404458
16	0xc235fb33	-45.49531
17	0xc22372b7	-40.862026
18	0x423da969	47.41544
19	0xc276b195	-61.67342
20	0xc262e4c7	-56.723415
21	0x41d00be1	26.0058
22	0x41c59746	24.698864
23	0xc1ec3ae7	-29.52876
24	0xbbe46a42	-0.0069706747
25	0x3fe0bf79	1.7558433
26	0x3e7d0f82	0.24712947
27	0xbf75c407	-0.9600224
28	0x3f92681d	1.1438023
29	0x3f2284d1	0.6348391
30	0xc0503a46	-3.2535567
31	0xbda9e7d0	-0.08296168
32	0xbca870a0	-0.020561516
33	0xbce2a3d0	-0.027666003
34	0x3d45c314	0.048281744
35	0xbd2d3d8d	-0.042295028
36	0xbc985a70	-0.018597811
37	0x3ccf94a2	0.025339428
38	0x3b990538	0.0046698116
39	0xbca026f4	-0.019549824

quantizer.embeddings.weight f4 [5, 8]
0	0x3f65466c	0.8956058
1	0x3fdefe9a	1.7421448
2	0xbe9caf4d	-0.30602494
3	0x3eac17b0	0.33611822
4	0x3fe9ad76	1.8256061
5	0xbcd12521	-0.0255304
6	0xc02a3912	-2.6597333
7	0x3ebceeea	0.36901027
8	0x3e9ad3f5	0.30239835
9	0xbe128192	-0.1430724
10	0x3f91edb4	1.1400666
11	0xbef09cfb	-0.46994767
12	0x3f0974b4	0.536937
13	0x3ebaa0ec	0.364509
14	0xbf28f59b	-0.65999764
15	0xbeadbf86	-0.33935183
16	0xbfd490e9	-1.6606723
17	0xbfbeeb0a	-1.4915478
18	0x3fdd8993	1.7307609
19	0xc01013c4	-2.2512064
20	0xc004836b	-2.070521
21	0x3f73030a	0.9492651
22	0x3f66cc96	0.90155923
23	0xbf89f754	-1.0778604
24	0xbb6dd45c	-0.0036289906
25	0x3f6a02e2	0.9141065
26	0x3e03bed4	0.12865764
27	0xbeffe534	-0.49979556
28	0x3f1870e9	0.5954729
29	0x3ea9379f	0.33050248
30	0xbfd8cf5f	-1.6938285
31	0xbd30e88f	-0.043190535
32	0xbf03db9d	-0.5150698
33	0xbf316af8	-0.69303846
34	0x3f9acfce	1.2094667
35	0xbf879da4	-1.0594983
36	0xbeee87a5	-0.46587864
37	0x3f227f76	0.6347574
38	0x3def9306	0.11697964
39	0xbefabd76	-0.48972672

decoder.conv_1.weight f4 [32, 8, 3, 3]
0	0x3dab2888	0.0835734
1	0x3d4e174c	0.050315186
2	0xbda408da	-0.08009501
3	0x3d5678eb	0.05236141
4	0xbd04f3a4	-0.032458916
5	0xbe4cfa52	-0.20017365
6	0x3ce71a0c	0.028210662
7	0xbcbf178b	-0.023326656
8	0xbd8b268c	-0.067944616
9	0x3d19743f	0.037464377
10	0x3e0b7299	0.13617934
11	0xbd8788f0	-0.06617916
12	0x3cb1984e	0.02167907
13	0x3c2c2c81	0.010508657
14	0xbd844951	-0.064592965
15	0x3dc9d86a	0.09855731
16	0x3e158f5e	0.14605471
17	0xbd7c97d6	-0.06166824
18	0xbdb038cd	-0.08604584
19	0xbca8f54f	-0.020624785
20	0xbd03dbae	-0.032191925
21	0x3dca5402	0.098793045
22	0x3d52bfc9	0.05145243
23	0x3d8e8f5a	0.06960936
24	0xbdbcc954	-0.09218088
25	0xbe3011d5	-0.17194302
26	0x3deb8131	0.11499251
27	0xbcb772f9	-0.02239369
28	0xbd8c980c	-0.06864938
29	0x3d4a1705	0.04933836
30	0xbda7ca39	-0.08192868
31	0x3dbe37e7	0.09288006
32	0x3c8c0438	0.017091855
33	0x3d704389	0.058658157
34	0xbcfa0c6c	-0.030523501
35	0xbe078d83	-0.13237576
36	0xbdb2795e	-0.08714555
37	0x3ddb1da8	0.10699016
38	0x3b1f1bf0	0.0024278127
39	0xbe0d8faa	-0.13824335
40	0xbd0304fb	-0.03198717
41	0xbe4bd79f	-0.19906472
42	0x3d8943a2	0.06702353
43	0x3e2797e2	0.16366532
44	0x3cdf57d9	0.027263569
45	0x3da4557d	0.08024118
46	0xbdd461ed	-0.1037024
47	0x3e0e6ab4	0.13907892
48	0x3e0218c0	0.12704754
49	0xbd846865	-0.06465224
50	0xbce46934	-0.027882196
51	0xbd3c7a59	-0.046015117
52	0xbd4966ec	-0.04917042
53	0xbb1a7b7c	-0.0023572138
54	0x3d8c0a65	0.0683792
55	0xbe0b0d88	-0.1357938
56	0xbd8f4052	-0.0699469
57	0x3dbeccab	0.09316381
58	0x3c045c25	0.00807861
59	0x3cfb818a	0.030701417
60	0xbc4517d9	-0.0120296115
61	0xbe65b8ae	-0.22433731
62	0xbbf9a5f0	-0.0076186582
63	0x3df2153e	0.11820458
64	0xbc3992db	-0.011326517
65	0xbc5a9f2e	-0.013343615
66	0x3d936779	0.0719747
67	0xbcfb947d	-0.030710453
68	0xbda5032d	-0.08057246
69	0x3ced7ae8	0.02898927
70	0x3d6b35f3	0.057424497
71	0x3d9cc022	0.07653834
72	0xbdfeeede	-0.12447904
73	0xbdcfec84	-0.10152534
74	0x3d354dc3	0.044263612
75	0xbd8daea4	-0.06918076
76	0x3e0bea62	0.13663629
77	0x3e4352cc	0.19074553
78	0x3d54f020	0.051986814
79	0x3e261f8e	0.16222975
80	0x3d1aad02	0.03776265
81	0xbcfd0838	-0.030887708
82	0xbd4f7b66	-0.05065479
83	0x3d2c33e8	0.04204169
84	0xbe062eab	-0.1310374
85	0xbd1f1f44	-0.038848177
86	0x3da0f27a	0.07858749
87	0xbdfce9c0	-0.12349272
88	0x3dcff598	0.10154265
89	0xbde8bf51	-0.11364616
90	0xbce79708	-0.02827026
91	0xbd00109b	-0.031265836
92	0xbdf97dc9	-0.12182195
93	0x3dfaf9d8	0.12254685
94	0xbc93388f	-0.017971305
95	0xbc8dedef	-0.01732537
96	0xbd76eb75	-0.060283143
97	0x3c8b9381	0.017038109
98	0x3e301913	0.17197065
99	0xbd14320c	-0.03618054
100	0x3d829370	0.06375778
101	0x3dc3c2bc	0.09558627
102	0xbddf6b76	-0.109091684
103	0xbb0754e5	-0.0020649966
104	0x3cbca00c	0.023025535
105	0x3c9d810b	0.019226572
106	0x3d7ce5a3	0.061742436
107	0x3de79b6f	0.113089435
108	0xbc8c055c	-0.0170924
109	0xbdc14aad	-0.094380714
110	0x3d96dc1f	0.073662035
111	0x397ddb93	0.00024209758
112	0x3e2e40c7	0.17016898
113	0x3d74c4d4	0.059758022
114	0xbcb97c0f	-0.022642164
115	0x3c6f3829	0.014600792
116	0x3d23ff57	0.040038433
117	0x3e3508e1	0.17679168
118	0x3d960c56	0.07326572
119	0x3c09db18	0.008414052
120	0x3d4ce6e9	0.0500249
121	0x3da233f0	0.079200625
122	0xbe099e9b	-0.1343941
123	0xbca3f623	-0.020014828
124	0xbd86b77f	-0.06577968
125	0xbcf78caf	-0.03021845
126	0x3bcf7077	0.0063305455
127	0xbdac8b12	-0.08424963
128	0xbe06c000	-0.1315918
129	0x3da3b2d6	0.079930946
130	0xbdda3402	-0.10654451
131	0xbbd20633	-0.0064094304
132	0x3d6340c4	0.055481687
133	0xbe56f107	-0.20990382
134	0x3e019c00	0.12657166
135	0xbe0614f9	-0.13093938
136	0xbd69c7a6	-0.057075165
137	0x3ddaa78f	0.106764905
138	0xbda236fe	-0.07920645
139	0xbd0c71ed	-0.034288336
140	0x3dc6c812	0.09706129
141	0x3c3a1674	0.011357892
142	0x3d87d6d8	0.06632775
143	0x3b597d65	0.0033186313
144	0x3db8593a	0.090013936
145	0x3e22ac00	0.15885925
146	0xbc02e343	-0.007988754
147	0x3d870332	0.06592406
148	0x3d050fae	0.032485656
149	0x3dae8a44	0.08522466
150	0xbab4f1f8	-0.0013805022
151	0xbd937ed6	-0.072019264
152	0xbb0998ea	-0.0020995685
153	0xbe221c0b	-0.1583101
154	0xbdadab64	-0.08479956
155	0xbd1785ff	-0.036993023
156	0x3e0cb62f	0.13741373
157	0x3df4bdba	0.1195025
158	0xbe24c4f0	-0.1609075
159	0x3de1140a	0.1099015
160	0x3e1c02d4	0.15235454
161	0xbde7947c	-0.11307618
162	0x3c2a03bf	0.01037687
163	0x3e415361	0.18879463
164	0xbd2c5c55	-0.042080242
165	0xbc93b6bc	-0.01803147
166	0xbe5a728a	-0.21332756
167	0x3e5d1ce0	0.21593046
168	0xbe4e3a98	-0.20139539
169	0xbe1dcab3	-0.15409355
170	0x3e4bf2dc	0.19916862
171	0xbda55e05	-0.080745734
172	0x3ce2111a	0.027596045
173	0x3c66ab18	0.014078878
174	0x3e2d7529	0.16939224
175	0x3d8719e2	0.06596734
176	0x3d69addd	0.057050575
177	0xbddaa5d8	-0.106761634
178	0x3d9c471a	0.07630749
179	0x3c35d598	0.011098288
180	0xbdd7d137	-0.105379514
181	0xbd9c69a9	-0.076373406
182	0xbd4de529	-0.050267372
183	0x3df25df8	0.11834329
184	0x3e0f8ce9	0.14018597
185	0xbdc7bb01	-0.09752465
186	0x3e1a1ceb	0.15050094
187	0x3d22830a	0.03967575
188	0x3cdf43ee	0.027254071
189	0x3de1aeab	0.110196434
190	0xbe1b5794	-0.15170127
191	0x3c155b26	0.00911597
192	0xbe30e54b	-0.17274968
193	0xbe22af2d	-0.15887137
194	0xbddec757	-0.10877865
195	0x3e01e6f5	0.1268576
196	0xbdebf047	-0.11520439
197	0xbd408543	-0.04700209
198	0x3df96b9a	0.121787265
199	0x3d8e9d54	0.06963602
200	0x3cbf2475	0.023332814
201	0xbe25fd5a	-0.16209927
202	0xbe612fae	-0.21990845
203	0x3c5ebb23	0.013594422
204	0xbe0f57a3	-0.13998275
205	0xbde7346e	-0.11289297
206	0x3cf9de64	0.030501552
207	0xbd8f3415	-0.06992356
208	0x3d1f2df9	0.038862202
209	0xbce85af6	-0.028363686
210	0x3df5f90c	0.120103925
211	0x3d1ea636	0.03873273
212	0x3cc987c8	0.024600878
213	0x3d6c2bb6	0.057658873
214	0xbde950ab	-0.11392339
215	0xbda3c5f4	-0.07996741
216	0x3dcc3b0e	0.09972201
217	0xbd1eb030	-0.038742244
218	0xbd8685cd	-0.06568489
219	0xbc8a5458	-0.016885921
220	0x3e952904	0.29132855
221	0xbb40b5e5	-0.0029405293
222	0x3d4d7e9a	0.050169565
223	0x3e1e2688	0.15444386
224	0xbd623a7c	-0.055231556
225	0x3dd285ab	0.102794014
226	0xbde30924	-0.11085728
227	0xbd92b3b6	-0.071631834
228	0xbe171942	-0.14755729
229	0x3e29c8c6	0.16580495
230	0xbda9e6e8	-0.08295995
231	0xbdbb2521	-0.09137941
232	0xbd34ca2a	-0.04413811
233	0xbe155b17	-0.1458553
234	0xbdf3a02b	-0.11895784
235	0x3ce1a589	0.027544754
236	0x3c19a9b5	0.00937884
237	0x3de08b0e	0.109640226
238	0xbd298415	-0.04138573
239	0x3d844270	0.064579844
240	0x3e1a698e	0.15079328
241	0x3d738918	0.059456915
242	0x3e389c8e	0.18028471
243	0x3d15ebae	0.036601715
244	0x3d1e27a8	0.038612038
245	0xbdcdb20a	-0.10043724
246	0x3df16a62	0.11787869
247	0x3e27f2ea	0.16401258
248	0x3d09801e	0.033569448
249	0xbd9a0d59	-0.07522077
250	0x3d94e9aa	0.072711304
251	0xbc9bf729	-0.019038754
252	0x3c5ef4bc	0.013608154
253	0xbdc7190c	-0.09721574
254	0x3d482a43	0.04886843
255	0x3d0ab684	0.033865467

decoder.conv_1.bias f4 [32]
0	0xbdb40bee	-0.08791338
1	0xbc78f413	-0.015194911
2	0x3d6afd26	0.057370327
3	0x3e30c12a	0.17261186
4	0x3e63af9b	0.22234957
5	0x3de13606	0.10996632
6	0xbde5a3ca	-0.11212881
7	0x3e176650	0.14785123
8	0x3dde4472	0.10852899
9	0x3d57b6d0	0.052664578
10	0x3e56324d	0.20917626
11	0x3da8c9c9	0.082416125
12	0x3d9507ed	0.07276902
13	0x3d549a9e	0.051905267
14	0xbd1c2a11	-0.038126055
15	0x3d1548cb	0.036446374
16	0x3e264fca	0.16241375
17	0x3e1d7d68	0.1537987
18	0x3e1043c8	0.14088356
19	0x3ddb6865	0.10713271
20	0x3e084e40	0.133111
21	0x3de4f08e	0.11178695
22	0x3e328825	0.17434748
23	0x3db592d0	0.08865893
24	0x3e538760	0.2065711
25	0x3e185a51	0.14878203
26	0x3e4415de	0.19148967
27	0x3e054eae	0.13018295
28	0x3bb0d55b	0.0053965277
29	0x3da30aaa	0.079610184
30	0x3e234b2d	0.15946646
31	0xbdd187f3	-0.102310084

decoder.conv_trans_1.weight f4 [32, 16, 4, 4]
0	0xbd1fada6	-0.038983963
1	0x3d6f63c1	0.058444742
2	0x3e02a4e7	0.12758218
3	0xbd14bc54	-0.036312416
4	0xbd12813b	-0.035767775
5	0x3d49b88f	0.049248274
6	0x3d58597a	0.052819706
7	0xbd824d8c	-0.06362447
8	0xbd0b330b	-0.033984225
9	0xbce31970	-0.02772209
10	0x3d508188	0.05090478
11	0x3c2ebad3	0.01066466
12	0x3d0f9dd6	0.035062633
13	0x3cfbd185	0.030739555
14	0x3db5fb3a	0.08885808
15	0xbd68c32b	-0.05682675
16	0xbddbf363	-0.10739782
17	0x3d6fa381	0.05850554
18	0xbcfdd77a	-0.030986536
19	0xbda42ee5	-0.08016757
20	0x3c53894a	0.01291115
21	0x3c95f263	0.018304056
22	0x3ddfcb02	0.109273925
23	0x3cdb0bb8	0.026738986
24	0xbe5164ea	-0.20448652
25	0xba7442fa	-0.00093178416
26	0x3d7a6431	0.061130706
27	0xbd896dca	-0.06710394
28	0x3e0238e9	0.12717022
29	0x3dcbb4f6	0.09946625
30	0x3e03fe40	0.12889957
31	0xbdf6b4e5	-0.12046222
32	0x3dea800e	0.11450206
33	0x3e7158e3	0.23569064
34	0x3e890678	0.26762748
35	0x3e5e9a31	0.21738507
36	0x3e0d02bb	0.13770573
37	0x3d747335	0.059680182
38	0x3daba2fa	0.08380695
39	0x3c9fc36a	0.01950236
40	0x3d94ee90	0.07272065
41	0xbd5c29e6	-0.053750895
42	0x3d09fb87	0.03368714
43	0xbdc5462a	-0.09632523
44	0xbda3d653	-0.079998635
45	0xbe39e546	-0.18153867
46	0xbdc77b86	-0.09740357
47	0x3d3057f0	0.043052614
48	0xbc7ab76e	-0.015302522
49	0x3db0409b	0.086060725
50	0xbc858700	-0.016299725
51	0xbd1ff655	-0.03905328
52	0xbcaa141d	-0.020761544
53	0x3d830ff3	0.063995264
54	0x3da28a88	0.07936579
55	0x3d8b7558	0.06809491
56	0x3d7047a6	0.05866208
57	0xbdbcac7c	-0.09212586
58	0x3db91ec0	0.09039068
59	0xbcdb0118	-0.02673392
60	0xbcb12a93	-0.021626746
61	0x3926bb3f	0.00015900748
62	0x3cce4996	0.025181573
63	0xbd02eeb3	-0.031965923
64	0xbd28aec0	-0.04118228
65	0x3e11433f	0.14185809
66	0x3cdf3488	0.027246729
67	0xbd56a8b1	-0.05240697
68	0x3d5739d0	0.05254537
69	0x3e21d39b	0.15803377
70	0xbe3fc115	-0.18725999
71	0xbd9a420c	-0.07532129
72	0xbb0a60fc	-0.0021114936
73	0x3c6ec368	0.014572956
74	0xbdb1cfc6	-0.08682208
75	0xbdae159b	-0.08500215
76	0x3d77f4df	0.06053626
77	0x3cd5ad41	0.02608359
78	0x3e40f0b6	0.18841824
79	0xbc7fb434	-0.015606929
80	0xbd861036	-0.06546061
81	0x3ce290f6	0.027657013
82	0x3dc48b36	0.09596865
83	0xbc594c1f	-0.013262778
84	0xbd9cd6ad	-0.07658134
85	0x3cb6f089	0.022331493
86	0x3db9a108	0.090639174
87	0x3d0502a5	0.032473225
88	0x3c1308eb	0.008974294
89	0xbe155d87	-0.14586459
90	0x3dafb59a	0.085795596
91	0xbb5714d1	-0.0032818804
92	0xbd8b7e26	-0.0681117
93	0xbcdb5c6b	-0.026777467
94	0x3d886ee3	0.06661775
95	0x3c409211	0.011753575
96	0x3d1c0d2a	0.03809849
97	0x3d909154	0.07058969
98	0x3d87f8fd	0.066392876
99	0xbd9279d3	-0.071521424
100	0xbbd0a78d	-0.00636763
101	0x3d238eed	0.039931227
102	0x3d30037e	0.04297208
103	0x3bf35046	0.007425341
104	0xbd573efc	-0.0525503
105	0x3cde411f	0.027130662
106	0x3d3776cc	0.044791028
107	0xbd3c35c4	-0.045949712
108	0xbc48bc48	-0.012251921
109	0x3c4a2237	0.012337259
110	0x3d7649e4	0.06012906
111	0xbe108ae0	-0.14115477
112	0x3d16513c	0.036698565
113	0x3e0d9a5b	0.13828413
114	0xbd522e55	-0.051313717
115	0x3c60a289	0.013710626
116	0x3e0121f6	0.12610611
117	0xbd7eb8ce	-0.062187962
118	0x3c8f4bd4	0.017492212
119	0x3d57bf81	0.052672867
120	0x3ea3859d	0.31937876
121	0x3e77f459	0.24214305
122	0xbcf9fff5	-0.030517558
123	0xbe122d8f	-0.14275192
124	0x3d8ff393	0.0702888
125	0xbe0a2e43	-0.1349421
126	0x3cfc1355	0.030770937
127	0x3d88e809	0.06684882
128	0x3ab3ece7	0.0013727219
129	0xbd6449e5	-0.055734534
130	0xbaf29f80	-0.001851067
131	0xbc74b010	-0.014934555
132	0x3e0cf6ca	0.13766018
133	0x3e373579	0.17891492
134	0x3dfd320d	0.12363062
135	0xbb701a52	-0.0036636782
136	0x3d55fe31	0.05224437
137	0x3d93d3c1	0.07218123
138	0x3dc14005	0.09436039
139	0xbd97ecbd	-0.07418201
140	0x3c3fac04	0.011698727
141	0x3b989f1c	0.004657639
142	0x3e12fd2e	0.14354393
143	0x3daa67ed	0.083206035
144	0x3d672ca1	0.056439046
145	0x3e2c7d97	0.16844784
146	0x3d5d8708	0.054083854
147	0x3d2a06d9	0.041510437
148	0xbc1e6392	-0.009667294
149	0x3df0e09d	0.117615916
150	0xba98489f	-0.0011618322
151	0xbdf83ddb	-0.12121173
152	0x3dc3aa27	0.09553938
153	0x3caff305	0.021478185
154	0x3d81bcfa	0.063348725
155	0xbd9e8b12	-0.07741369
156	0x3d09cbf9	0.03364179
157	0x3d8e096d	0.069353916
158	0x3d2aa2c8	0.041659147
159	0xbdb44a6f	-0.088032596
160	0x3c87f443	0.016595965
161	0xbcb4162b	-0.021983227
162	0xbd974d60	-0.07387805
163	0x3dadc07d	0.0848398
164	0x3e47dd04	0.19517905
165	0x3e83ed7c	0.25767124
166	0x3e01530c	0.12629336
167	0x3c118334	0.008881379
168	0x3c5f8d5c	0.013644543
169	0x3e04c550	0.12965894
170	0x3d80b2ad	0.0628408
171	0x3ddb505f	0.10708689
172	0x3e266cdd	0.16252466
173	0x3c70f9d4	0.014708001
174	0x3d08f810	0.033439696
175	0x3e1dcb74	0.15409642
176	0xbdfbc7e8	-0.122939885
177	0xbe03172d	-0.1280181
178	0xbce25549	-0.027628558
179	0x3c71fc63	0.014769646
180	0x3e18551f	0.14876221
181	0xbbf5475e	-0.0074853143
182	0x3e134e14	0.14385253
183	0xbdf7cf5c	-0.121000975
184	0x3c6197fa	0.013769144
185	0x3da4cee4	0.08047274
186	0x3d2c750c	0.042103812
187	0x3c8b6c80	0.01701951
188	0xbdb102ad	-0.086430885
189	0xbe520872	-0.20511034
190	0x3cb80282	0.022462133
191	0xbd264291	-0.040590826
192	0xbc6e1319	-0.01453092
193	0xbe1a30e7	-0.15057717
194	0xbd83f506	-0.06443219
195	0xbcc756c8	-0.024333373
196	0x3db10357	0.08643215
197	0x3e0f327c	0.13984102
198	0x3e4d5564	0.20052105
199	0x3ca65463	0.02030391
200	0x3c7e35f7	0.015515796
201	0x3dcd2c07	0.10018163
202	0x3e019cec	0.12657517
203	0xbba19481	-0.004931033
204	0x3d79baaa	0.060969032
205	0x3e70491a	0.23465386
206	0xbc9f3463	-0.01943416
207	0x3d014fed	0.031570364
208	0x3d9ad2cd	0.07559738
209	0x3e180b02	0.14847949
210	0x3e781713	0.24227552
211	0x3d5e7007	0.054306056
212	0xbe253dcf	-0.1613686
213	0xbdac7d6d	-0.084223606
214	0xbcd09427	-0.02546127
215	0x3d5003ca	0.050784864
216	0xbcda842c	-0.026674353
217	0xbd67e2bd	-0.05661272
218	0x3cf29832	0.029613588
219	0xbd0ee8da	-0.034890033
220	0xbc72b074	-0.0148125775
221	0x3d8874dd	0.06662915
222	0x3cc400ff	0.023926256
223	0xbb463593	-0.0030244335
224	0xbd92e118	-0.071718395
225	0xbd8a3ff5	-0.0675048
226	0xbe037992	-0.12839344
227	0xbceea964	-0.029133506
228	0xbd01809d	-0.031616796
229	0x3d268327	0.04065242
230	0x3d9311d8	0.07181138
231	0x3d9207f1	0.07130421
232	0xbcf9debe	-0.03050172
233	0x3e044b62	0.12919381
234	0x3df9c08c	0.121949285
235	0xbd8bee8d	-0.06832609
236	0xbc4c6b90	-0.012476817
237	0x3e53dae7	0.20688973
238	0xbcb59427	-0.022165371
239	0xbc6052b0	-0.013691589
240	0x3d46dd50	0.048550904
241	0x3dc9237d	0.09821222
242	0x3e2bedd3	0.16789941
243	0x3e050733	0.12991028
244	0x3d9b979c	0.075972766
245	0x3d9a1758	0.07523984
246	0x3dd54a5a	0.10414572
247	0xbbbf472f	-0.005837343
248	0xbbb23b38	-0.0054391883
249	0x3dd7d951	0.10539497
250	0x3d90e1d7	0.070743255
251	0x3d58c5c3	0.052922975
252	0x3d91c1ef	0.07117068
253	0x3d98ece3	0.074670576
254	0x3dc3d81a	0.095627025
255	0x3df8e25a	0.12152548

decoder.conv_trans_1.bias f4 [16]
0	0x3e013e20	0.12621355
1	0x3dc3948a	0.09549816
2	0x3df21fc3	0.11822464
3	0x3da169df	0.078815214
4	0x3db20839	0.086929746
5	0x3e2502b8	0.16114318
6	0x3e044973	0.12918644
7	0xbdc28379	-0.09497733
8	0xbdf1edd4	-0.1181294
9	0x3dce0dbe	0.10061215
10	0xbd096b8e	-0.033549838
11	0xbd6b1078	-0.057388753
12	0xbd990705	-0.07472042
13	0x3e30623e	0.17224976
14	0xbca58b1b	-0.020207932
15	0x3dcc3e94	0.09972873
